w2vec_checkpoints/byte_encoder.pt (torch, 951831 bytes, 40 tensors)

weight f4 [5, 32]
000000 de 81 02 3f ff 0f b8 3f 3f 5d cd be 42 22 d7 3e
       0.5097941 1.4379882 -0.40110204 0.42018324
000010 8d e4 95 bf bd 93 88 3e 51 0c 2e bf 6e c1 9b bf
       -1.1710373 0.26675215 -0.67987543 -1.2168405
000020 f9 f7 f9 be c9 b3 1d 3f 0a 0f 48 bf 19 c5 49 3f
       -0.48822 0.61602455 -0.7814795 0.7881637
000030 e4 a5 8a 3d 30 d5 a3 3f 3d ce d3 be 38 af fd bd
       0.067699224 1.2799435 -0.41368285 -0.12386936
000040 97 73 f2 3e 61 35 82 3e 56 13 96 3e a8 83 10 3f
       0.47353813 0.2543135 0.29311627 0.5645089
000050 2d 4a 8a bd d0 0b 6e 3f 56 b3 ce 3d 73 db 0e 3f
       -0.06752429 0.92986774 0.10092799 0.558036
000060 9a c3 18 bf 48 35 95 3f e1 0a d0 bd f7 80 cb 3f
       -0.59673464 1.1656885 -0.10158325 1.5898732
000070 a7 a9 33 bf f6 f5 5c 3f 30 e1 53 3d f5 a8 81 bf
       -0.70180744 0.86312807 0.051728427 -1.0129687
000080 7e fa a2 3d 28 49 a8 bf c5 f2 66 be e8 d7 97 3f
       0.07957934 -1.3147326 -0.22553547 1.1862764
000090 48 6b 93 be 3b a6 14 bf 00 3f b3 bf d0 3e b8 3f
       -0.28792787 -0.5806615 -1.4003601 1.4394169
0000a0 6f 98 dc 39 04 d1 a2 3e 14 62 8b bf e4 45 52 bf
       0.00042075242 0.3180009 -1.0889306 -0.82137895
0000b0 d9 9a ea bb 95 e7 83 3e a0 e8 e0 bf d6 6b 78 3f
       -0.0071595726 0.2576262 -1.7570992 0.97039545
0000c0 92 9a d7 3e 5a 79 8c 3d 44 77 76 bf 62 fd 9c 3b
       0.42110115 0.068590835 -0.96275735 0.004790948
0000d0 48 bb 88 3f 19 ca ce 3d e0 cd 31 3f cc 9e 39 bb
       1.0682154 0.10097141 0.69454765 -0.002832341
0000e0 ef d8 97 3d d0 59 97 38 c1 c1 43 bb b2 e2 d9 38
       0.07414424 7.21697e-05 -0.0029870125 0.000103895916
0000f0 60 10 d4 3e 35 23 03 3e f9 45 af 3e 32 03 34 3f
       0.41418743 0.12806399 0.34233072 0.70317376
000100 88 9b 52 bd 3d 52 00 be cc 15 2e 3f 1c d5 a3 3f
       -0.051417857 -0.12531371 0.6800201 1.2799411
000110 4d 3b 15 3f 09 59 b6 be 94 ba 99 3f aa bd f1 be
       0.5829361 -0.35614803 1.2010064 -0.47215015
000120 5f 07 a7 bc cf ff f8 bd 82 e8 3d bf a7 2c 3e 3d
       -0.020389257 -0.121581666 -0.74182904 0.046429303
000130 49 8c 82 3f 75 cc a9 bf 98 b7 41 bd e4 49 9a be
       1.0199062 -1.326552 -0.04729423 -0.301345
000140 42 1e 90 3e fa 25 fb be 58 30 29 40 45 3c ad bd
       0.28148085 -0.4905241 2.6435757 -0.08458761
000150 86 01 8e 3e 56 a4 44 bf b6 01 bd 3d 75 86 00 40
       0.27735537 -0.76813257 0.09228842 2.0082066
000160 e4 7d 08 3f e0 7d 9b be 47 50 1c 3d 02 65 30 3d
       0.53317094 -0.30369473 0.038162496 0.04306508
000170 da 75 cf 38 83 52 d1 be 9f b4 09 bf 81 b6 e2 3f
       9.892481e-05 -0.40883264 -0.5379123 1.7711946
000180 62 5e 32 bb 1b a0 1e 3f 30 7c 42 bf 97 eb d4 be
       -0.00272169 0.6196305 -0.75970745 -0.4158599
000190 2e 83 58 3d 5c f1 33 3f 5f 96 59 3f 25 c2 eb be
       0.052859478 0.7029016 0.84995073 -0.46046558
0001a0 c1 79 d1 be 8c 47 94 ba fe b3 2d bf 6d 58 93 3f
       -0.40913203 -0.0011312827 -0.6785277 1.151136
0001b0 7b 4d 92 be 67 fe 38 3d 1b 0c 44 3f 28 32 2f bf
       -0.28574738 0.045164492 0.7658097 -0.6843591
0001c0 0a f7 90 be 16 06 31 3e 67 d2 84 bd da f1 17 3f
       -0.28313476 0.17287478 -0.064854436 0.5935341
0001d0 72 21 aa ba a9 1e 9c be e7 11 05 40 55 0b e8 3e
       -0.0012979938 -0.30492142 2.0792177 0.45321146
0001e0 6d af cc 3e 05 2b 96 3e b8 73 db 3c fa 83 6d 3d
       0.3997759 0.29329696 0.026788577 0.05798719
0001f0 08 af 04 bf 1a ef d1 bf 57 da bb bf 5c 1b cd bf
       -0.51829576 -1.6401093 -1.4676007 -1.6023974
000200 dc b6 ec 39 43 c4 23 3e 3e 34 c6 3e 43 8a ad 3f
       0.0004514967 0.15992837 0.38711733 1.3557819
000210 fa 0d 0e bf 49 d3 43 40 37 7a 3c ba 39 a0 38 bd
       -0.55490077 3.0597708 -0.0007189842 -0.045074675
000220 e9 85 1b 3f ca f3 06 3f c8 e7 a7 3e 0e e9 5f be
       0.60751206 0.5271574 0.32794023 -0.21866247
000230 a6 8a 82 bf 55 2a 9a 3d 86 ef 58 3f 9e ef 0e bf
       -1.0198562 0.075276054 0.84740484 -0.55834377
000240 be ad a2 3c a5 86 24 bf 2f 52 3f bf 1b e1 3b 3f
       0.019858237 -0.6426795 -0.7473478 0.7339036
000250 d0 e0 bd bb 4d de de be c0 9a 2a bc 79 c0 c0 be
       -0.005794622 -0.43528977 -0.010412872 -0.37646845
000260 ad 01 fc 3d 4f 87 c3 be a1 63 46 3a d0 d7 78 bf
       0.12305007 -0.3818917 0.00075679464 -0.97204304
000270 df 7a a0 3d c8 3e 3f bf 00 6f 14 bd da 0e 07 3f
       0.07835936 -0.7470517 -0.03623867 0.52757037

weight f4 [17, 32]
000000 95 28 b8 3f aa a2 92 3f d8 99 ca bd ef 7f 1c bf
       1.4387385 1.1455891 -0.098926246 -0.6113271
000010 3f 30 54 be d4 2b c5 3d 70 85 b1 be d3 a8 d6 bf
       -0.2072153 0.096275 -0.34672117 -1.6770271
000020 70 b2 8f bf 68 c1 20 c0 80 a9 1f c0 38 d5 78 3e
       -1.122633 -2.5118046 -2.4947205 0.24300086
000030 f9 7a 27 3f c3 26 74 3e 3a ef d9 bf 0b 74 72 be
       0.65422016 0.23842911 -1.7026131 -0.2367708
000040 44 3d f3 3e 38 7a ca bf f9 a0 51 3e 8c 1a 3c bf
       0.4750768 -1.5818548 0.20471562 -0.7347801
000050 05 a9 c6 bf c1 49 d7 3f dd 46 8f 3e 29 31 fd be
       -1.5520331 1.6819383 0.27983752 -0.4945157
000060 77 5f a7 bf f0 ab 50 bf 53 44 07 c0 5a 06 c5 3f
       -1.3076009 -0.81512356 -2.1135452 1.5392563
000070 68 06 35 3e 99 45 a9 bd c3 01 cf be 5f 1e 09 3f
       0.17678225 -0.08265228 -0.40431032 0.5356197
000080 41 64 70 3f 13 e7 c0 be 92 df e9 b8 d3 65 1d 3e
       0.93902975 -0.37676296 -0.00011151949 0.15370874
000090 bc 0a 4c be 96 2a 27 bf 1c 8f 04 3e 9a 48 58 3b
       -0.1992597 -0.65299356 0.12945217 0.0033002258
0000a0 be 02 52 3b e0 bc b4 3f 36 07 98 bf 95 c0 27 3f
       0.0032045092 1.412014 -1.1877201 0.6552823
0000b0 dd 03 21 3e 69 fe b6 3c e8 98 49 bf 97 4a af 3f
       0.1572413 0.02233811 -0.7874894 1.3694638
0000c0 04 1d a2 bf aa e1 37 3b 64 50 b7 be 78 ac 35 3f
       -1.2665105 0.002805809 -0.3580352 0.7096629
0000d0 c4 dd c1 b7 fc 40 47 3f aa f6 b1 3e 17 b2 38 be
       -2.311066e-05 0.77833533 0.34758502 -0.18036686
0000e0 13 86 4d bf 44 08 25 bf 59 89 07 bb 4a 7b d6 3e
       -0.80282706 -0.6446574 -0.002068123 0.41890937
0000f0 91 59 ac 3e bc 30 b2 3e a1 92 92 3e 77 f1 0e c0
       0.33662084 0.34802806 0.28627494 -2.2334878
000100 aa 81 0e ba bb 83 c8 39 70 52 e6 bd 79 ef 80 39
       -0.00054361916 0.0003824512 -0.112461925 0.00024592484
000110 6f fa 2e bf be ee ee be 7f 2b ad bf 45 56 2e 3e
       -0.6835088 -0.4666652 -1.3528899 0.17025097
000120 ad 60 b9 bd 5a dd b8 3e 68 1e 96 3e 90 b6 f6 3f
       -0.090516426 0.36106378 0.29320073 1.9274464
000130 ab 92 79 bd e8 3a be bf 31 dc 5c 3f 86 61 cf be
       -0.06093089 -1.4861727 0.86273485 -0.40504092
000140 3c 6a 3d bf c6 be b6 bd 2f 42 1c bd de 01 14 3f
       -0.73990226 -0.08923106 -0.038149055 0.5781535
000150 95 7c 68 bf 3d ab 19 bf b4 bb ea 3d 40 39 f5 bd
       -0.908151 -0.60026914 0.11461583 -0.1197381
000160 3b 6f 20 3d d6 a1 31 3b ee 19 d1 3f de 16 18 ba
       0.039168578 0.0027104518 1.6336038 -0.00058017473
000170 a3 2e 24 bf 1d d9 83 3e 19 62 2f 39 70 92 54 39
       -0.6413366 0.25751582 0.00016725845 0.00020272448
000180 84 4e f7 bd 0b 70 2b bf 3f 2b 18 bf 0e cf 01 bf
       -0.120755225 -0.6696784 -0.5944099 -0.50706565
000190 6b 5f 71 3e 55 3d 97 bf 9f 44 07 3a 28 91 01 3f
       0.23571555 -1.1815592 0.00051600666 0.50612116
0001a0 e5 a5 bd 3e 17 3b be 3f ba 5d 10 bf f4 eb 6b 3e
       0.3704063 1.4861783 -0.56393015 0.23039228
0001b0 de b0 11 3f 83 81 9c ba 1f d4 0b bf e4 a7 17 3f
       0.569105 -0.0011940453 -0.54620546 0.59240556
0001c0 8e 10 4b 38 74 ea 37 be a1 e7 50 3f e8 ba 21 bf
       4.841439e-05 -0.1796053 0.8160344 -0.6317582
0001d0 53 c8 8e 3e f9 82 96 3d 04 86 88 bd e5 ae 7a 3e
       0.2788721 0.073492 -0.066661865 0.2448078
0001e0 c5 02 60 3e 9d 34 60 3f 25 7f 70 3e 96 b9 08 c0
       0.21876056 0.8758028 0.23486002 -2.1363273
0001f0 99 90 01 3f 43 e6 a0 be 48 eb fd 39 0d 25 3f bf
       0.50611264 -0.31425676 0.0004843122 -0.7466591
000200 d7 86 66 3e f5 86 c3 3c b0 a4 05 3e 58 a3 0a be
       0.22512375 0.023868063 0.13051105 -0.13538873
000210 89 83 82 bf c0 40 9e 3e bf 57 da 3e 09 6e 1e bd
       -1.0196391 0.30908775 0.4264507 -0.038679156
000220 86 9c d3 3f f4 9a 2c bb 15 df 16 3b 07 a2 9d bd
       1.6532142 -0.0026337476 0.002302115 -0.0769692
000230 19 38 65 bf 49 8d 89 bc 59 a4 db 3f b2 ff 8b bf
       -0.89538723 -0.016791003 1.715953 -1.0937407
000240 3c 7a b7 be b2 9e c9 3d 0c 9c 54 3b f3 29 40 bf
       -0.35835445 0.09844722 0.0032441644 -0.7506401
000250 db c1 c7 be 3c 6d cd be 95 b2 c9 bf c6 c4 bf ba
       -0.39015087 -0.40122402 -1.5757624 -0.0014630787
000260 5e c1 83 3e 09 8e 97 3b 9e d6 29 bf 71 74 ee bf
       0.25733465 0.004625086 -0.66343105 -1.8629285
000270 e2 a6 d1 3d a4 3e 23 be bf 27 8a be f7 ea a6 bf
       0.102369085 -0.15941864 -0.2698345 -1.3040456
000280 00 2c d0 3e c5 53 72 3a ae fe bc bd 7b 71 a7 be
       0.4065857 0.000924405 -0.09228264 -0.32703766
000290 ef 9c f5 3a ca 11 e7 bf b4 ce 37 3b 21 1a 2b bf
       0.0018738786 -1.8052304 0.0028046789 -0.66836745
0002a0 92 ed 57 bd 8d ac 3b bb ad 80 99 3d 7c 85 a4 3f
       -0.0527168 -0.0028636784 0.07495246 1.2853236
0002b0 e4 c1 73 b9 c4 e1 43 bb c9 a7 59 3f 94 3a 2b bf
       -0.00023246516 -0.0029889205 0.85021645 -0.6688626
0002c0 b9 73 18 bf aa 3d a7 bd 37 f2 bd 3f d1 b2 24 bf
       -0.5955158 -0.08166058 1.4839543 -0.6433535
0002d0 bd e7 bb 3d 00 28 e1 ba c9 fe 02 40 72 4c 24 bb
       0.0917506 -0.0017178059 2.0468009 -0.002506998
0002e0 59 f1 5c 3e 5b 66 52 bf ef 96 02 3e 72 7f 90 bf
       0.21576442 -0.8218743 0.12752889 -1.1288893
0002f0 d7 94 0e bc 5a 47 16 bf cd a8 9b 39 4f fb 55 be
       -0.008702478 -0.58702624 0.0002968967 -0.20896648
000300 49 85 8f bf ce e8 e0 3e b6 dc 36 3f ed 48 ec bd
       -1.121255 0.43927616 0.7143053 -0.11537347
000310 ba e1 ae bf d7 a3 06 3a 6c 89 6c be 9b 76 06 be
       -1.3662636 0.00051361084 -0.23099297 -0.13131182
000320 32 a9 03 bf f6 53 11 38 82 5f 4d 3a da 75 38 3e
       -0.51430047 3.464889e-05 0.0007834361 0.18013707
000330 44 0f d2 bc ae 71 8a bf 2f a5 5f bf 68 d4 b7 3d
       -0.025642045 -1.0815942 -0.87361425 0.0897606
000340 4a 53 95 bf a9 06 6d bf 80 96 b7 39 32 9d c4 3f
       -1.1666043 -0.9258829 0.0003501661 1.5360472
000350 2e 2d ab 3f 11 8a 1e bf 38 eb f9 3e 53 e8 49 ba
       1.3373163 -0.6192942 0.4881227 -0.00077021605
000360 00 ad ac bd bf 5a 52 bf b3 aa 8b 3e e6 4c b3 3f
       -0.08431435 -0.8216972 0.2727867 1.4007843
000370 1b 0d 81 3f 4c ac b6 bf fe 24 3e 3d ea 94 12 bf
       1.0082124 -1.4271331 0.046421997 -0.57258475
000380 da 8d 28 be 0c 47 a1 bf 66 88 47 3a ea d1 20 bf
       -0.16460362 -1.2599807 0.00076115725 -0.62820303
000390 5d 60 af be 17 34 44 bd 81 48 48 be fb ce e5 3e
       -0.34253207 -0.04790124 -0.19558908 0.44884476
0003a0 c0 87 98 3f a8 88 a2 ba 93 a1 e9 39 9a 37 3c bf
       1.1916428 -0.0012400346 0.00044561605 -0.7352234
0003b0 be 70 4d 3f 66 7a c3 bf c9 89 89 3f a8 e0 45 3c
       0.80250156 -1.5271728 1.0745174 0.012077488
0003c0 bc 17 3a 3f 9e e3 41 3d 0f 50 a7 3e d2 e3 e8 bf
       0.72692466 0.047336213 0.32678267 -1.8194525
0003d0 2a 87 02 3e f2 57 e2 be 51 48 d4 3f 56 4e 64 bf
       0.12746873 -0.44207722 1.6584569 -0.8918203
0003e0 bc e3 47 38 e6 b7 3a 3f 60 ae 05 3f cc 3e 67 be
       4.765739e-05 0.72936857 0.522192 -0.22582549
0003f0 3f 26 d2 bd a0 1e cf bc 3d fc 33 3f 6f be 1c 3e
       -0.10261201 -0.025283158 0.7030676 0.1530702

weight f4 [254, 32]
000000 ec 13 bc 3e 81 2d 3c be 94 fa 8a bf 5e e8 13 40
       0.3673395 -0.18376733 -1.085772 2.3110576
000010 22 83 16 bf 55 7b 32 3f 99 c9 f6 be 79 82 f5 bf
       -0.5879384 0.6971944 -0.48200682 -1.9180442
000020 27 24 43 3f 6a 88 8c 3f 22 7b 94 bf 8f c3 e4 3d
       0.7622704 1.097913 -1.1600077 0.11170112
000030 c4 54 81 bf 7f 7c b6 3f 19 63 c4 3e 0d 89 10 3f
       -1.0103993 1.4256743 0.38356856 0.5645912
000040 c5 61 1e 3f d0 4e 6b 3f be 51 97 3f 6e 7e 98 bf
       0.61867934 0.91917133 1.1821821 -1.1913583
000050 03 39 6d 3f f7 0b 1b 3e 26 4d 8b bf a4 bb a8 bf
       0.9266512 0.15141283 -1.0882919 -1.3182263
000060 bf f5 c5 bf 4f 16 e3 3e cf 52 08 3f f7 db c0 be
       -1.5465621 0.44352958 0.53251356 -0.3766782
000070 40 b5 91 bf f9 fd d1 3f 1c 18 7e 3f af 0b 88 be
       -1.1383438 1.6405631 0.9925554 -0.26571414
000080 3b 55 a8 bf f0 bb 51 3e 45 86 1a 3f 07 bc 28 3d
       -1.315101 0.20481849 0.6036113 0.04119494
000090 c2 b5 80 3f d0 22 b3 3e d6 9b e1 3e ec 57 85 3e
       1.0055468 0.34987497 0.44064206 0.26043642
0000a0 4e d9 47 bf bb 29 db 3c 69 6e 8e be c5 4b c8 be
       -0.78065956 0.026753297 -0.2781861 -0.39120308
0000b0 d6 c3 01 bf df 58 54 3f d1 fb 19 be aa ab 37 bf
       -0.50689447 0.82948107 -0.15037467 -0.71746314
0000c0 54 53 9b 3f 34 b3 2b 3e e5 20 2a 3e 1c e1 c1 3f
       1.2134805 0.1676758 0.16614111 1.5146823
0000d0 cf 9d 63 bf 7f 46 74 be 8c e9 08 3e 10 91 a3 bf
       -0.8891267 -0.23855017 0.13370341 -1.2778645
0000e0 bd 01 63 be 7d ea 14 3f 25 69 62 3f 7f ea 8d 3e
       -0.22168632 0.581703 0.8844169 0.2771797
0000f0 0e 10 2b bf 68 1d 5c 3e 7f 34 09 be dd 20 64 be
       -0.6682137 0.21495593 -0.13398932 -0.22278161
000100 81 fa 17 3f 14 ea 29 bf 59 26 78 3d cb e8 77 be
       0.59366614 -0.663728 0.060583446 -0.24209897
000110 6b b8 38 b9 1e 2f 9a bf 76 61 2e b9 00 23 8e be
       -0.00017616308 -1.2045629 -0.0001663024 -0.27761078
000120 26 6e 39 3f 0d ed 3b 3b 91 65 4e 3f 1e 6f d1 3e
       0.724337 0.0028675229 0.8062373 0.40905088
000130 0b 4f 37 bf 2d e6 e3 3e 7f 1f 11 3e 27 24 5b 3e
       -0.71604985 0.44511548 0.14172171 0.2140051
000140 89 33 dd 3c 98 c3 6a bd a2 56 74 3e d6 24 5f 3e
       0.027002113 -0.05731544 0.23861173 0.21791396
000150 cd 48 07 c0 d1 ca 69 bd 00 35 53 bb 16 81 92 3f
       -2.1138184 -0.057078186 -0.0032227635 1.1445644
000160 ad 49 20 3c 4e 57 77 ba 40 ed 0f 3d a5 26 17 bc
       0.009783191 -0.00094353117 0.03513837 -0.009225522
000170 a0 d9 f2 3e 01 a7 36 bd 14 85 21 ba c0 34 a8 3d
       0.4743166 -0.04459286 -0.0006161493 0.08213186
000180 e8 65 bc bf eb 90 d4 3d 1d d5 d5 bb b0 ec 58 3e
       -1.4718599 0.103792034 -0.006525649 0.21184039
000190 0b e3 53 3f cd 58 47 bf 6e 56 92 3f 0d 6b 81 3f
       0.82768315 -0.77869874 1.1432626 1.0110794
0001a0 4d 4d 84 be 76 d1 4b 3e 3c 97 8c 3f d0 68 c1 3f
       -0.25840226 0.19904122 1.0983653 1.5110111
0001b0 2f 02 93 be fc 46 ef 3f ca 02 02 3f 50 0a 6e 3a
       -0.28712603 1.8693538 0.50785506 0.0009080516
0001c0 20 c9 ad b7 ba 22 23 bf 7c 84 a1 3e ce f4 cb bf
       -2.0716863e-05 -0.63724864 0.3154639 -1.5934083
0001d0 23 0c 85 bf 4e 8e cf 3e 8d 78 39 bf df 02 38 3f
       -1.0394329 0.40538257 -0.7244957 0.7187938
0001e0 4b 3c 3c 3e 5d 67 9a ba 01 e8 39 3f 3a 7c 88 3f
       0.18382375 -0.0011780072 0.72619635 1.0662911
0001f0 5d 25 cc 3f 42 80 69 be c5 60 a4 be 4c 5c dd 3a
       1.5948902 -0.22802833 -0.3210508 0.0016888469
000200 a4 79 25 c0 1b e5 87 be 47 e7 a2 be 30 dc 1c 3b
       -2.5855494 -0.2654198 -0.31817076 0.0023934953
000210 0a 39 bb bf 43 5f 1f 3e 82 e4 cd 3c d2 5b e5 3e
       -1.4626782 0.15563683 0.025133375 0.44796616
000220 fd b9 c8 be c3 dd 0b 3f 74 5c b8 be 7a 58 47 be
       -0.39204398 0.54635257 -0.36008036 -0.19467345
000230 c9 b3 f1 3d 06 d1 c1 b9 12 3e ed 3f e7 96 8e bf
       0.118018694 -0.00036967563 1.8534567 -1.1139802
000240 a1 4b e6 be fe e4 97 be 5c b6 22 3b 59 c3 53 b9
       -0.44979575 -0.29666895 0.0024827933 -0.00020195301
000250 99 37 ee 3f 74 8b 9d 3d a1 10 d7 be 29 6b 03 c0
       1.8610717 0.07692614 -0.42004874 -2.0534155
000260 d3 1f 80 bf 38 79 89 3e cb c3 10 c0 48 0d 61 39
       -1.0009712 0.26850295 -2.2619503 0.0002146262
000270 42 05 93 3e 5d bc 19 bf 4d b8 0a be 4e 0d 7a bf
       0.2871495 -0.60053045 -0.13546868 -0.9767655
000280 cc 53 a9 ba 4a 05 8a bd b6 a7 30 3e 00 5f 14 c0
       -0.001291865 -0.0673929 0.17251477 -2.3182983
000290 24 47 9b 39 83 56 52 3f ad d1 a6 bb a5 db a0 3f
       0.00029616908 0.82163256 -0.0050909133 1.256703
0002a0 80 8e 30 bf 1b 68 f2 be d6 c1 8f bf c4 93 0c 3f
       -0.6896744 -0.4734505 -1.1231029 0.5491297
0002b0 c8 e9 76 3f 53 22 47 bd ff 24 bf bf 72 3f 14 be
       0.9645047 -0.04861672 -1.4933165 -0.14477327
0002c0 7b ab 92 3f 8e 8b bb bf 3e 94 54 3f ee 97 de 3e
       1.1458582 -1.4651964 0.830387 0.43475288
0002d0 44 9a b3 bf e3 88 43 3b 37 12 aa bf dc 16 57 3f
       -1.4031453 0.002983623 -1.3286809 0.84019256
0002e0 a0 9b a1 be f3 24 e0 3d 63 dd 66 bf 34 a2 79 bd
       -0.31564045 0.109445475 -0.9018156 -0.060945705
0002f0 bd 91 be be 22 d9 ab 3e 37 aa ae bf dc f9 9d 3b
       -0.37220564 0.33564097 -1.3645695 0.0048210453
000300 48 07 c5 b9 be 08 38 bf 21 07 23 3f 32 42 b8 bf
       -0.00037580193 -0.7188834 0.6368275 -1.4395201
000310 9e 23 be bc 92 ce ff 3c 3c 9f b6 3f 73 bd a7 3e
       -0.023210343 0.03122643 1.4267344 0.32761726
000320 9a d5 45 3f 3d 71 82 be a6 1b f3 3e a3 90 61 bf
       0.77279055 -0.2547702 0.47482032 -0.88111323
000330 0d 17 27 3f 51 49 9b 3e ab 47 d4 3d c9 b7 13 c0
       0.6526955 0.30329373 0.10365232 -2.3080924
000340 f2 50 b3 3d c4 2e b5 3c 0a 1d 66 be 90 07 93 3f
       0.087556735 0.022117026 -0.22472015 1.1486683
000350 c4 4e fb 39 f1 bd 30 bf 61 34 e7 bf 7a 03 d9 b8
       0.00047933136 -0.6903983 -1.806286 -0.00010348014
000360 6e 13 87 bf 05 84 5f bf 37 9f ae 3f 44 d4 9d bf
       -1.0552804 -0.8731082 1.3642339 -1.2330403
000370 ea 82 65 3f 93 ed 96 3f 8d 15 90 bf fa 30 92 3a
       0.89652884 1.1791252 -1.1256577 0.0011153512
000380 4f 08 6c bf 1a d0 ac be e5 68 93 ba bb 67 b6 be
       -0.9220018 -0.3375252 -0.0011246471 -0.35626015
000390 14 3b 03 3e 67 42 04 3f cb 70 c8 3e 84 39 00 38
       0.12815505 0.5166382 0.39148554 3.0571144e-05
0003a0 54 1b 68 bd b4 a7 ec bf 65 9b 25 3f ac a4 15 3f
       -0.056666687 -1.8488679 0.6469024 0.58454394
0003b0 0a 07 70 bf 5f 7c 7b be 77 ee 42 bb d8 7d 0a be
       -0.9376074 -0.24559163 -0.0029744187 -0.13524568
0003c0 49 85 33 3c 67 c9 d2 3f 98 07 75 3f 73 c7 f1 3f
       0.010957071 1.6467713 0.9571471 1.8888992
0003d0 6c af fb ba 87 e8 02 3f 26 0d 44 bf 4c 63 18 3f
       -0.001920206 0.5113606 -0.7658256 0.59526515
0003e0 9d 5b 0b 3f 10 20 59 3f f0 b4 01 40 0d 72 f3 bb
       0.54436666 0.8481455 2.0266685 -0.0074293674
0003f0 2f 78 f3 b9 b7 57 3a 3f c6 d4 6a 3f fe b2 5b 3f
       -0.00046438116 0.7279009 0.91730917 0.85819995

weight f4 [256, 32]
000000 46 d9 11 3f 7a 1b 0b 40 c2 fb d8 3e 5a d6 b7 bf
       0.5697216 2.173552 0.42379576 -1.436229
000010 3a e6 24 3f b7 d8 1c c0 f9 64 8d be c8 4c 78 bf
       0.644138 -2.4507272 -0.276161 -0.9699216
000020 d8 6c 86 3f 44 cd 80 bf a4 a9 7b 3f 05 3f d1 3e
       1.0501966 -1.0062642 0.98305726 0.40868393
000030 5c 88 a8 bf 38 91 65 3f 46 4f 23 bf 26 79 df 3f
       -1.3166614 0.8967471 -0.63792837 1.7458847
000040 16 a1 5e 3f e4 a0 14 3f 60 4f 5d 3e e7 bb ae 3e
       0.8696455 0.58058 0.2161231 0.34127733
000050 77 ba 6b be aa 8a 0d 3d f9 70 da 3f 3f 65 6d bf
       -0.2302035 0.03455607 1.7065727 -0.92732614
000060 5d dd 40 bf 8f 3f ae 3e 9c bd 36 be 94 cc 34 3f
       -0.75337774 0.34032866 -0.17845768 0.7062466
000070 0c 6d 02 bf 04 3c 80 bf c1 d0 a3 bf 67 f7 0c 40
       -0.5094764 -1.0018315 -1.2798082 2.2026002
000080 4e 15 a2 bd 60 cc 12 3f 24 74 f2 bd 38 66 34 3f
       -0.0791422 0.573431 -0.11838558 0.70468473
000090 50 d1 b7 be f7 4b 13 3f 07 57 13 3f 60 81 df bf
       -0.3590188 0.5753779 0.5755467 -1.7461357
0000a0 26 82 2d 3f d6 9f 4f 3f 7e bb c0 3f ae 06 f8 3f
       0.67776716 0.81103265 1.5057218 1.9377038
0000b0 38 51 1f 3f ff f7 87 3f 2e e7 8e 3f bb fe 98 be
       0.62233305 1.0622557 1.11643 -0.29881844
0000c0 62 c6 b2 3f ae b2 5b 3e 58 dc 1b c0 a0 95 5c bf
       1.3966792 0.2145488 -2.4353237 -0.8616581
0000d0 83 9b 74 3d 85 a7 c6 3f e4 df ab 3e 84 af ad 3f
       0.05971862 1.5519873 0.33569252 1.3569188
0000e0 8d 76 36 bf ed 1a ce 3f c0 f3 43 3f 39 53 b3 3d
       -0.71274644 1.6101967 0.7654381 0.08756108
0000f0 ad fa 83 3f f7 b4 f5 3d c6 e6 5e bf 8a 32 17 3f
       1.0310875 0.11997407 -0.8707088 0.5906149
000100 40 cc 82 bd 03 52 3c be 88 28 b2 b9 b4 a6 80 be
       -0.06386614 -0.1839066 -0.00033981004 -0.25127184
000110 f6 d4 db bf 5a f3 f9 3e fb 12 bf b8 d9 e6 33 3f
       -1.7174366 0.48818475 -9.111125e-05 0.7027412
000120 a1 e7 1a bf f7 23 87 3f cf 78 a6 be 4e 7b 38 3e
       -0.6050969 1.0557851 -0.32514045 0.18015787
000130 ef a9 64 bf 21 f0 92 3f 64 54 86 3f 0f 22 5a be
       -0.893218 1.1479532 1.0494504 -0.21302055
000140 55 9b 89 3f 57 2d 93 3f 09 0f 45 3e ec a6 4b be
       1.0750529 1.1498212 0.19244017 -0.19887894
000150 2b 7e a6 3d 19 4d 8f 3f ac 04 07 be 59 8c db be
       0.081295334 1.1195403 -0.13185376 -0.42880514
000160 b4 e2 5c 3e e2 3c 9d be 52 63 19 bd 01 f7 88 bf
       0.21570855 -0.30710512 -0.037448235 -1.070038
000170 71 d3 ef bf fc 56 8e bf 0d 53 1d bf eb 1f 09 bf
       -1.8736402 -1.1120296 -0.6145485 -0.5356433
000180 f8 95 63 b8 bb 25 56 bf f9 bc 3f bb 6e d9 aa bf
       -5.4260687e-05 -0.8365132 -0.0029256924 -1.3347604
000190 7c b5 12 c0 91 c4 12 bb 7f 1e a5 3f 70 5a 44 3e
       -2.292327 -0.0022394995 1.2899932 0.19175124
0001a0 30 46 fb bf 90 82 27 3f b5 15 ba be 82 81 be 3c
       -1.9630795 0.654336 -0.36344686 0.023255114
0001b0 fd ef 80 bf 6c 36 1f 3f 28 27 15 3f 3c ae 8a bf
       -1.0073239 0.62192416 0.5826287 -1.0834422
0001c0 1a 3b a3 3d 8b b7 ff bd 09 29 63 be 50 4d 63 3e
       0.07970257 -0.1248618 -0.22183622 0.22197461
0001d0 dc fc a6 3e 36 44 26 3f ca de 3c bf a1 9d ac be
       0.3261479 0.6494783 -0.7377745 -0.3371401
0001e0 a0 fb 33 bd e8 e0 a6 bd 5a 76 83 3f 80 6c 2a be
       -0.04394114 -0.08148366 1.0270493 -0.16642952
0001f0 7d 2b 77 bf ad 38 04 bf fe 37 c9 3e ce 7c f8 bf
       -0.9655073 -0.5164898 0.3930053 -1.9413087
000200 09 dc 58 bf b1 b1 8e 3a 9a e6 22 be 9e cd 39 bf
       -0.84710747 0.0010886696 -0.1590828 -0.7257937
000210 91 13 ee 3e 9c ba 88 bf b0 4c 9f bf b7 2d 31 3f
       0.46499303 -1.0681949 -1.2445278 0.6921038
000220 21 4a 80 bf 16 f9 05 ba 1c 8a 29 3e 18 a0 fe b9
       -1.0022622 -0.0005110664 0.16556591 -0.00048565934
000230 fd cf 6b 3f d3 4f 7a bf 2b 45 58 3e 56 da 36 be
       0.9211424 -0.9777805 0.21120135 -0.17856726
000240 34 ae dd be d4 43 b0 39 9b 33 89 bf 90 1a 25 3e
       -0.4329697 0.00033619872 -1.0718874 0.16123414
000250 99 74 30 bf 9f d1 2b c0 06 3e bd bf 5e 88 64 bf
       -0.68927914 -2.6846693 -1.4784553 -0.8927058
000260 1a 4f 8c ba 8f e5 e9 bd 98 d7 dd 3e ef 23 b8 bf
       -0.0010704726 -0.11420738 0.43328547 -1.4385966
000270 de 44 13 3b 21 51 69 3f a4 05 94 3f 2a e1 84 bf
       0.0022471468 0.9113942 1.1564221 -1.0381215
000280 96 8a 68 3e b7 0e 25 3e aa e2 11 bf 16 f0 d1 be
       0.22709116 0.16118895 -0.56986487 -0.41003484
000290 26 1f 5d 3e 4a 14 6f bf 01 c0 87 bf 81 7e 56 3f
       0.21593913 -0.93390334 -1.060547 0.8378678
0002a0 5a c0 95 3f d8 66 79 be 9f 9a fc 3f 1c 3a 8c 3f
       1.1699326 -0.24355638 1.9734687 1.0955234
0002b0 a9 0a c8 3e d1 fe 20 3f 57 f1 09 3d 1d e4 8d 3f
       0.39070633 0.6288882 0.033677425 1.108524
0002c0 b7 23 93 3e 13 e1 b3 bf 68 c5 07 3a 34 1b 97 bf
       0.28738186 -1.4053062 0.0005179257 -1.1805177
0002d0 27 12 76 bf 47 ea c6 ba 57 c1 19 3e 13 a5 64 bf
       -0.9612145 -0.0015176021 0.1501516 -0.89314383
0002e0 fc e8 5c be 2d 03 a5 3e 16 b7 72 3f f6 89 8d 3e
       -0.21573251 0.32228985 0.94810617 0.27644318
0002f0 29 49 41 3a 6b cb 97 3f 26 0d 80 bf 2a 76 d2 be
       0.00073732674 1.1858953 -1.0004013 -0.41105777
000300 91 16 b8 bc e5 0a 20 3e a9 82 1a 3f e3 b0 2a 3f
       -0.022471698 0.15629156 0.6035562 0.6667616
000310 cc 4c a2 bf 8b c3 ae 3f 7a e6 d7 bf 69 74 84 3f
       -1.2679687 1.3653425 -1.6867211 1.0348026
000320 81 80 ce 3f 19 98 b5 3e 03 44 e6 bf 18 1b 07 3f
       1.6132966 0.35467604 -1.7989506 0.52775717
000330 9f 53 46 bf 65 bc c4 3f c2 db 0e 3f b7 d0 19 3f
       -0.77471346 1.5369993 0.55804074 0.600841
000340 75 da a2 be a6 a8 a0 3f 38 05 b5 be 4c 88 6f 3f
       -0.31807294 1.2551467 -0.35355544 0.9356735
000350 4d 74 1c 3f 31 0b d6 3f 3f 22 89 38 c8 bc 45 bf
       0.6111496 1.6722165 6.539048e-05 -0.7724118
000360 1e cd d5 be 40 5d 0e 3f 2a a2 a3 bf 3b da 5c bf
       -0.41758054 0.5561104 -1.2783864 -0.86270493
000370 34 5d 23 3f 01 b7 2d 3e 54 ba c8 be e6 cf 10 be
       0.6381409 0.16964342 -0.39204657 -0.14141807
000380 db c7 d0 bd 16 69 20 3c 2b 09 a3 3e ef 38 25 be
       -0.101943694 0.009790679 0.31842932 -0.16135
000390 fe 33 af 3a db 28 63 3f 01 8d c6 be d3 71 0b 3b
       0.0013366935 0.88734215 -0.38779452 0.0021277561
0003a0 a1 76 ef bf 42 3c 89 3f e0 ad 39 bf fe 3a 14 bf
       -1.8708078 1.0721514 -0.7253094 -0.57902515
0003b0 e2 40 6e bf 83 3f 9b bf 68 21 7d 3f b2 9c d4 3f
       -0.93067753 -1.2128757 0.988791 1.661032
0003c0 d5 e0 29 bf 81 1c 04 be 4e 37 33 bf c9 c7 a2 3f
       -0.6635869 -0.12901498 -0.70006263 1.271722
0003d0 54 b8 09 bb 4f af 71 3d c2 43 31 3a 1e 4f cc be
       -0.002101441 0.059005078 0.0006762111 -0.39904112
0003e0 d0 01 b5 be dd c9 d3 3c 16 39 e0 b9 b6 b7 58 3f
       -0.35352945 0.025853092 -0.00042767142 0.8465532
0003f0 8c 42 7a 3f b4 0d 83 bb e7 87 9c bd 42 ef e6 3e
       0.9775779 -0.0039994363 -0.07643109 0.45104414

weight f4 [128, 64]
000000 70 e7 92 bb 1b 90 01 bd bb e0 6e 3c 05 87 a6 bd
       -0.004483156 -0.03163157 0.014579947 -0.08131222
000010 43 eb d8 3d 78 73 84 bb 35 6e bf 3d 9b cb 54 bd
       0.105917476 -0.0040420853 0.09347192 -0.051951986
000020 42 9f 12 3d 7c 16 6b 3d 6a da 06 bd e9 17 c9 bc
       0.03579641 0.05739449 -0.03292314 -0.024547534
000030 ee cd ed b8 2f 95 79 3c fc 6c 3d bd de 47 99 3c
       -0.00011339398 0.015233322 -0.046246514 0.018711027
000040 84 9d 1b bd 7c 92 f5 3c 67 65 44 bd e0 a0 d2 bc
       -0.037992015 0.029977076 -0.047948267 -0.025711477
000050 df e7 49 ba 98 b4 82 bd bc 4c 0b bb f4 a3 d0 bd
       -0.0007702093 -0.06382102 -0.0021255454 -0.101875216
000060 4e 1e 1b bd f0 34 51 3d a6 10 d3 3b 27 c1 81 3d
       -0.037870698 0.051075876 0.0064411936 0.06335669
000070 ec 78 25 bd 21 3f 10 be b4 ff 09 3a 8c 97 4f bc
       -0.040398523 -0.14086582 0.0005264238 -0.012670409
000080 e5 ca c0 bc f2 1a 7d bc 13 e5 54 bd 70 08 48 bd
       -0.023534248 -0.015448319 -0.051976275 -0.04883617
000090 51 8a d8 bb c3 43 cd bd 32 34 c3 3c 63 92 26 bd
       -0.0066082855 -0.1002269 0.0238286 -0.04066695
0000a0 b0 2f 69 bd 36 06 04 be 82 2a d4 3d 3f c2 2d 3d
       -0.056930244 -0.12892994 0.1035967 0.042421576
0000b0 56 13 a5 39 aa 4c 18 bd 52 f2 3e 3d 9b 27 65 3b
       0.0003148566 -0.037182488 0.046617813 0.0034966234
0000c0 e1 22 4f bd fc d2 d5 bc 31 ea 83 bc 33 f8 fb bd
       -0.050570372 -0.026101582 -0.016102882 -0.123031996
0000d0 09 1c 2e 3c 06 05 cc 3c 98 d0 24 bc 37 c0 bc bc
       0.010626801 0.02490474 -0.010059498 -0.023040874
0000e0 ee 6b bb 3d 6f 17 3c 3d 3f 2d d2 3b 59 4e 15 bb
       0.09151445 0.045920786 0.006414085 -0.0022782295
0000f0 58 65 e9 3d 8a bf 2c ba 9d ae ee ba 71 4f 83 3d
       0.11396283 -0.0006589821 -0.0018209998 0.064116366
000100 4d 25 47 bd 11 b0 55 3b e4 51 da 3c d0 26 03 bc
       -0.048619557 0.0032606164 0.026650377 -0.008004859
000110 66 ae e7 bc 46 7f b2 bc 89 69 92 3c 22 f0 2a ba
       -0.028281402 -0.021789204 0.017872589 -0.0006520768
000120 6d 3b eb bb ca 26 05 bd a7 34 e9 3b ca 0f 99 bc
       -0.007178715 -0.032507695 0.0071168724 -0.018684287
000130 6b 08 97 3a 0a 15 60 3d a7 95 92 bb 05 97 19 3a
       0.0011522894 0.054707564 -0.0044734064 0.00058589905
000140 68 70 78 bc 2e 19 4d 3c 61 b8 9a bc 96 ff 6b bd
       -0.0151635185 0.01251821 -0.018886747 -0.057616793
000150 5c e8 92 3a ca 41 a0 bd 5f 83 38 3b 05 51 73 3c
       0.0011208165 -0.07825048 0.0028154475 0.0148508595
000160 59 1a a7 3b 97 96 29 bd 92 27 03 bb 09 0e f7 3c
       0.0050995764 -0.04140338 -0.00200126 0.03015806
000170 fb 7f 24 3d a4 c1 86 bd 10 71 af 38 fe 3c 11 3d
       0.040161114 -0.06579903 8.36571e-05 0.035458557
000180 86 ea 3b bc 52 c5 0d 3d 3e dc 23 3c df a8 a8 bc
       -0.011469489 0.034612007 0.01000124 -0.020588337
000190 b6 84 6c 3c 25 da 7f bc 79 9a da bc 47 27 88 bc
       0.014435938 -0.015615975 -0.026684986 -0.016620291
0001a0 26 d9 da bb 81 50 58 bd 38 6c e6 3c 90 ad 66 bc
       -0.006678718 -0.05281115 0.028127775 -0.014079466
0001b0 20 e1 2f 3a 6b 57 32 3d 1d 92 ca bc e6 00 27 ba
       0.00067092665 0.0435404 -0.024727875 -0.00063706783
0001c0 8a f7 18 bd ba c7 85 ba d0 af f1 bb fd b7 5a bc
       -0.037345447 -0.0010206618 -0.007375695 -0.01334953
0001d0 0f 83 99 b9 b2 d9 47 3d 98 73 08 ba b9 a6 33 bd
       -0.0002928008 0.048791595 -0.0005205213 -0.04386017
0001e0 25 1f 8b 3c 99 12 57 bd 08 d6 e5 38 c9 ed f6 3c
       0.016982624 -0.05250797 0.00010959437 0.030142682
0001f0 a5 d0 03 3d 34 d8 45 bd 58 e6 08 3b 96 31 4a bd
       0.0321814 -0.04830189 0.0020889249 -0.049363695
000200 88 80 1f bb b7 c1 20 bd 8d cd 21 3d db 47 ce bb
       -0.0024338085 -0.03924724 0.03950267 -0.006295187
000210 3a 1e b6 3d 45 7a 12 bb 08 58 c2 bc 7b 26 fc 3c
       0.08892484 -0.002235071 -0.023723617 0.030780068
000220 05 74 af bc 9d ec ad 3c 39 67 50 3c 0d 8d a0 bc
       -0.021417627 0.02123099 0.012719923 -0.019598508
000230 5d 8a 0e 39 8c 3b 1b 3d 7b 7b f3 bb db 21 27 bb
       0.0001359372 0.037898585 -0.0074304915 -0.0025502357
000240 89 33 77 bd 6c 0c 15 3d c5 91 ab 3c e5 21 83 3d
       -0.060351882 0.0363888 0.020943532 0.06402949
000250 e4 19 bb b8 62 e3 2f 3d ac ae 4e ba b8 cb 87 bc
       -8.921677e-05 0.04294146 -0.00078843045 -0.016576633
000260 b5 86 2f 3d 6b 4d 62 bc e6 6c f2 3a 00 c2 ca ba
       0.042853076 -0.013812403 0.0018495589 -0.0015469193
000270 18 d9 46 bd 18 9e 39 bd d6 22 1a 3a b4 81 95 bd
       -0.04854688 -0.045316786 0.0005879825 -0.073001295
000280 e5 65 c7 bc 14 5b 26 3d dd e4 1b 3d 37 d4 31 3d
       -0.02434058 0.040614203 0.038060058 0.043415274
000290 06 49 78 3d 64 91 f3 bb 55 d5 97 bc 01 9c a4 bd
       0.060616516 -0.0074331034 -0.018534342 -0.08037568
0002a0 bf a3 97 ba f1 d2 61 bc 3b 0d c7 bc 98 d7 df 3c
       -0.0011569186 -0.0137832025 -0.024298301 0.027324483
0002b0 9a a4 6d ba 1d 22 a8 bd 23 6f f7 bc 41 f8 20 bb
       -0.000906536 -0.082096316 -0.030204361 -0.0024562033
0002c0 4d 33 c8 bc ed ed f6 3b 97 12 29 bd 62 ed af bb
       -0.024438525 0.007535687 -0.041277494 -0.0053688744
0002d0 54 88 3f bb dc 97 bc bc 77 e8 19 3b 47 3e a7 bc
       -0.0029225545 -0.023021631 0.0023484507 -0.020415438
0002e0 f0 a5 98 3d 89 94 a2 bd 64 8c c4 3a fa 7c fa bc
       0.07453525 -0.07938487 0.0014995453 -0.030577172
0002f0 2d ef cd 3c 6e 64 3a bd 76 ea 3c 38 e2 63 aa 3d
       0.025138462 -0.045505933 4.504105e-05 0.083198324
000300 e1 a9 03 bb 79 8d a5 39 a1 ec ca b9 98 c1 2b b8
       -0.002009027 0.00031576658 -0.00038704745 -4.0949875e-05
000310 95 b2 09 bb 24 e5 66 b8 34 41 99 b8 62 ce 75 ba
       -0.0021010984 -5.5049677e-05 -7.3077535e-05 -0.0009376762
000320 34 e2 75 3a e8 3e 1e 39 38 51 8b b9 a1 d2 5f 3a
       0.0009379715 0.00015091489 -0.0002657266 0.0008538161
000330 93 86 2a 3a ce df 9c 3a 44 ce 90 3a 18 67 1d bb
       0.00065050385 0.0011968554 0.00110478 -0.0024017747
000340 e0 7b 45 ba cf 5f 90 ba ce 8f 18 ba 25 c8 27 3a
       -0.00075334124 -0.0011014881 -0.00058197684 0.00064003683
000350 20 48 93 b9 50 c1 e4 38 ec 76 45 3a b6 c0 ad ba
       -0.00028091762 0.000109078945 0.00075326744 -0.0013256285
000360 fb de ac b9 c3 03 f2 3a fd 61 65 ba a8 39 13 3a
       -0.0003297253 0.0018464256 -0.0008750258 0.00056161964
000370 4a 69 3d 3b 66 74 c8 39 21 3c 84 3a 13 50 37 bb
       0.0028901868 0.00038233696 0.0010088721 -0.0027971312
000380 f7 81 3e 3b 88 fd 29 3a 37 17 df b9 08 e8 09 39
       0.0029069164 0.00064846175 -0.0004255117 0.00013151777
000390 ea b1 d5 b9 89 af 43 3a b8 7d 14 3b bc b2 0b 3a
       -0.00040759082 0.00074648164 0.0022657942 0.00053290627
0003a0 00 2e e9 b9 1f c2 f2 ba a3 b6 d9 37 fa 83 42 bb
       -0.00044475496 -0.0018520987 2.5953463e-05 -0.0029680715
0003b0 76 c7 21 3a 58 db 1a 3b 87 ca 70 39 d8 93 ad ba
       0.00061713846 0.0023629274 0.00022963631 -0.0013242913
0003c0 fc dc 66 39 81 2f 18 3b 8c d5 35 39 5a 43 0f 3b
       0.00022016832 0.0023221674 0.00017341058 0.0021860213
0003d0 2e d3 84 39 24 45 49 bb df 2b 36 ba 10 2c cd 39
       0.00025334343 -0.0030711377 -0.00069492863 0.00039133476
0003e0 13 c2 21 bb 72 13 81 ba 4a cb f0 b9 a0 42 06 39
       -0.0024682328 -0.0009847714 -0.0004592783 0.00012804056
0003f0 0e 21 3b bb ae b9 01 3a e7 57 27 3a b9 3d 1a 3a
       -0.0028553638 0.0004948628 0.0006383643 0.0005883831

bias f4 [128]
000000 d0 67 2e bd be d4 07 bd 2b c6 a3 bd 51 aa fe 39
       -0.042579472 -0.03316187 -0.07996782 0.0004857355
000010 03 e3 0a 3e 7b e1 1b bb 60 6d c1 bc 8e 81 f6 ba
       0.1356316 -0.002378552 -0.023611724 -0.0018806921
000020 56 a4 ed bc 24 98 ff 38 88 0c 26 3b 1d 18 ee 3b
       -0.029009026 0.00012187686 0.002533706 0.007266058
000030 2a 62 da 3c 0f 38 73 bd 32 35 d0 3c e1 c1 85 bd
       0.026658136 -0.059379634 0.02541599 -0.0653112
000040 27 ae 5c 3b eb 66 cf 3d 8c b4 ed 39 2f c1 36 bc
       0.0033673139 0.10127052 0.0004533868 -0.011154457
000050 a4 52 0e bd 63 fb 81 b9 9f 3c f7 39 76 4f fb ba
       -0.03474678 -0.00024792095 0.00047156677 -0.0019173461
000060 af 36 16 bb 32 01 2c ba 1c fd ec 3c e1 e7 8b 39
       -0.0022920778 -0.00065614574 0.028929286 0.0002668491
000070 34 4f 2a 3d 5f 8c c1 bb b5 46 20 bb b7 78 2c 3d
       0.04157944 -0.005906626 -0.0024456207 0.04210731
000080 c2 c1 75 3d 93 70 a3 3d 42 3b 27 3b 16 6b 5e 3a
       0.059999235 0.07980456 0.0025517498 0.0008484585
000090 11 1a 09 3a 50 82 5f 3d 9f eb c1 39 e6 10 01 bc
       0.00052300195 0.054567635 0.0003698738 -0.007877564
0000a0 70 f2 1f bc df b5 f4 bb d8 99 10 3e 20 5a 6b 3d
       -0.009762391 -0.00746797 0.14121187 0.057458997
0000b0 de df 18 3a e4 c0 f8 3d 53 b7 fc 3a 12 96 8e ba
       0.00058316987 0.12146166 0.0019280709 -0.0010878465
0000c0 d1 02 8b 3a a4 d9 6f 3a 2a e2 9f 3d ff a1 ee bd
       0.0010605698 0.00091495574 0.07806809 -0.11651992
0000d0 21 29 3d 39 c7 e4 4e bd 1c f8 57 bd ff 9a 53 3c
       0.00018039766 -0.050511148 -0.05272685 0.012915372
0000e0 e3 64 39 3b ab 89 68 bd a8 d8 b4 3d 5b 9a 4f bd
       0.0028288893 -0.056771915 0.088303864 -0.050684314
0000f0 e6 23 4f 3d f7 fb 43 bb 74 67 1c 39 6e 9d 69 bc
       0.050571345 -0.0029904821 0.00014915859 -0.014258726
000100 ad 3d 02 3e e0 1b bf 3c 0f ed 12 3e d0 db 1f bb
       0.1271884 0.023328722 0.14348243 -0.0024392493
000110 8b 07 c0 3c 98 ca 36 bd 66 89 6b bd 27 a7 28 3b
       0.023441097 -0.044626802 -0.05750408 0.0025734396
000120 64 3c 52 bc df 60 a6 3c d9 86 46 bb 58 91 89 ba
       -0.012831781 0.020309864 -0.0030292778 -0.0010495586
000130 fc 60 c1 3a 6d 12 19 bd 0d 32 00 3b e3 b2 9f b7
       0.0014753635 -0.037371088 0.0019561083 -1.9037578e-05
000140 c4 d9 88 ba 19 df 16 3d e3 57 b5 3a 9f 7b 7d ba
       -0.0010440876 0.036833856 0.0013835396 -0.0009669605
000150 96 9e 3d 3d 46 29 87 bd bd 37 d9 bb b5 f0 f9 ba
       0.046293817 -0.06599669 -0.006628959 -0.0019068929
000160 10 b1 bb 3a e2 5b 9b 37 90 88 f6 3c 02 cb 22 39
       0.0014319737 1.8520226e-05 0.030094415 0.0001552515
000170 e7 86 8d 3c 39 a6 52 3d 51 82 a4 39 88 53 42 3d
       0.01727624 0.051428054 0.0003137761 0.047442943
000180 76 5c 3a b9 04 fc 3a 3d 2a db 98 39 3e 4e fb 39
       -0.00017772787 0.045650497 0.0002915499 0.00047932746
000190 3d d9 5c 3b 7d 1f 48 bb 31 7f 6d 3a 04 a2 41 3b
       0.003369882 -0.0030536347 0.00090597855 0.0029546032
0001a0 fa 2e 03 3a d0 46 de 39 3b f6 11 3e 90 79 2e 37
       0.00050042535 0.000423959 0.14254086 1.0399512e-05
0001b0 bd c5 42 ba 42 ba 64 3c d7 57 3e 3b f4 bd 90 b9
       -0.0007429978 0.013960423 0.0029044056 -0.00027607346
0001c0 98 15 94 39 46 45 12 3e d1 8e cb 3d 98 4d 39 bb
       0.00028244848 0.14284238 0.099393494 -0.002827501
0001d0 49 de 41 bb 52 a5 39 bb 04 a0 53 3c 73 c3 9d 3d
       -0.0029581955 -0.0028327298 0.012916569 0.077032946
0001e0 13 61 0f b9 6c 9b e5 3b d9 0c 37 3a 2c ff f4 3a
       -0.00013673706 0.007007053 0.00069828104 0.001869177
0001f0 40 44 7a 38 9c e4 0f 3a dc 11 4f 3a c9 71 87 3a
       5.9668208e-05 0.00054890825 0.00078990846 0.0010333593

weight f4 [128, 64]
000000 af 78 02 ba 9d f7 6d ba 6a 6a c2 39 8c ac 4a 3a
       -0.00049770897 -0.000907773 0.00037081848 0.00077314
000010 c2 1d 9d ba 2d a6 4c 3a 8c 5f fc b7 29 5b 96 ba
       -0.0011987018 0.00078067445 -3.0085233e-05 -0.001147126
000020 a3 2d 82 39 5a fa f9 39 cb 48 21 bb 6d 2c 46 3a
       0.00024829534 0.00047679507 -0.0024610038 0.00075597205
000030 7a 5e 8f 39 7d 0d 13 3a 16 ab 52 ba 4e 98 47 39
       0.00027345476 0.0005609615 -0.0008036358 0.00019034857
000040 fa 12 90 3a b4 e0 04 ba 34 ff 3d bb a9 4b 93 39
       0.0010991984 -0.0005068884 -0.0028991224 0.00028094396
000050 3c fa 52 38 ed 87 13 3a b5 8b 07 3a 5e 71 df 38
       5.030095e-05 0.00056278595 0.0005170659 0.00010654585
000060 e4 7b 44 bb 90 38 2d 3a a1 dd 3f 39 05 04 e9 39
       -0.002998107 0.0006607855 0.00018297743 0.00044444218
000070 6b a6 04 ba ce fb 83 3a 0e a8 fc b8 5e cf 1d 3a
       -0.00050601986 0.001006955 -0.00012047599 0.0006019975
000080 04 ea 02 3a 78 54 f4 39 92 91 07 ba cf 60 3c ba
       0.00049939775 0.0004660224 -0.0005171533 -0.00071860565
000090 04 31 d5 ba e9 c6 18 bb 1c 89 24 bb cf 18 e8 38
       -0.0016265218 -0.002331192 -0.0025106138 0.00011067243
0000a0 ef 7e 3d 3b b1 08 8c 38 33 92 56 ba 7e bd 64 39
       0.002891477 6.677339e-05 -0.00081852375 0.00021814366
0000b0 0a c3 0c bb cc de a6 ba ed a1 8f 3a 97 bd 0e bb
       -0.0021478557 -0.0012731194 0.0010958292 -0.0021780485
0000c0 e2 78 40 bb c5 e6 a4 ba 83 80 3b 3b 5a 48 c4 b9
       -0.0029368927 -0.0012580982 0.0028610535 -0.0003743794
0000d0 e2 71 9b 3a 3d 4f 9b b9 4c 6c a5 ba 0a e7 7a b9
       0.0011859501 -0.0002962294 -0.0012620776 -0.00023927927
0000e0 32 ea 06 ba 0e f6 2f 3a a8 ff e6 ba bc c4 3a bb
       -0.0005146592 0.0006712385 -0.0017623799 -0.002849861
0000f0 2e 4b 7e b9 5c f0 05 b9 d0 f0 2a 38 94 50 ee b7
       -0.00024251334 -0.00012773409 4.0755433e-05 -2.8409333e-05
000100 b0 83 dd b9 75 61 5f b9 e7 eb 41 3b 53 26 0a 3a
       -0.0004225052 -0.00021303243 0.0029590072 0.0005269993
000110 8e 24 b4 3a 98 e7 d6 b9 51 e5 a4 3a 1f 20 0c bc
       0.0013743804 -0.00040989812 0.0012580549 -0.00855258
000120 19 6b 35 bb 29 4d 8f 3b 4a 7d c4 bc 96 6e 8c ba
       -0.0027682243 0.004373212 -0.023985524 -0.001071411
000130 c2 14 17 bb c0 e4 3d 36 20 1c 01 3a 47 ac 43 b9
       -0.0023053144 2.8296345e-06 0.00049251504 -0.00018660827
000140 a2 cd 23 3a ee 54 bc 39 b1 d2 20 bb 4a 29 b1 39
       0.0006248598 0.00035921432 -0.0024539644 0.00033790834
000150 0b fa 3d b9 1a 7f 9d bb 1c 10 9e ba cd ee 03 ba
       -0.00018117593 -0.0048064115 -0.0012059244 -0.00050328375
000160 e0 77 52 3b 99 e2 08 3a 4e c0 f6 3a 3c b4 44 3c
       0.0032114908 0.0005221754 0.0018825622 0.012005862
000170 30 09 df 39 d1 4f 9d ba e6 24 cb 39 5b 3e 07 3a
       0.0004254072 -0.0012001937 0.0003874667 0.0005159133
000180 28 da 96 3a 07 66 0b ba 7a 2f 74 3a 71 0e 93 39
       0.0011509107 -0.00053176325 0.0009314936 0.00028048785
000190 98 d5 d1 39 98 57 8b 3a aa 28 33 3b e4 4c a0 3b
       0.00040022726 0.0010630963 0.002733747 0.0048919786
0001a0 af 3f 16 bb 79 60 17 3c 41 bd 03 3c d8 e1 40 3b
       -0.0022926142 0.0092393095 0.008040727 0.0029431488
0001b0 c7 b5 bf 39 cb e7 c6 b9 9d 2b 25 3a 24 c8 63 3a
       0.00036565794 -0.00037938202 0.00063007494 0.0008689186
0001c0 55 21 29 bb da 0c b1 b9 39 0d ff b9 fe 07 24 bb
       -0.002580722 -0.00033769646 -0.00048647242 -0.0025029178
0001d0 3a b8 e2 38 d2 35 0e bb 76 c7 85 ba 0a df ae 39
       0.00010810835 -0.002169956 -0.0010206539 0.00033354043
0001e0 0c fe 58 b9 1f 48 d9 ba ab 69 4d bb 9c 71 11 b9
       -0.00020694005 -0.001657728 -0.00313435 -0.000138706
0001f0 b3 3c 3a bb f0 01 1c 3a 6e 46 14 3b f4 0b 4c 3b
       -0.0028417527 0.00059512164 0.0022624987 0.0031135054
000200 53 73 83 3d 73 f4 04 3d 5c cd 3b 3a d5 8b 81 3c
       0.06418481 0.032459687 0.0007164085 0.015813747
000210 76 d2 da ba ba fe 69 b9 cc 44 5b bb 4c 0d 2b bc
       -0.0016694802 -0.00022315505 -0.0033457754 -0.010440182
000220 dc e1 a7 3c 08 be a2 3d 44 f8 de 3c 7a 34 d0 3b
       0.02049344 0.07946402 0.027217992 0.006353912
000230 85 79 86 3c 18 21 e5 37 95 da 73 3c bd 20 5f bc
       0.016415367 2.7314338e-05 0.014883657 -0.013618645
000240 8f 62 7b 3b e3 46 ac 3d 04 22 9c ba 57 96 06 3d
       0.0038358306 0.08411958 -0.0011911993 0.03285822
000250 fd 40 e9 3c 3a 27 b7 3b 4e 54 5b 3b e4 87 35 3d
       0.028473372 0.005589393 0.0033466998 0.04431905
000260 67 40 ab 3d ac ac a4 bc 70 69 40 3d a0 86 81 3d
       0.08361893 -0.020101868 0.046975553 0.06324506
000270 63 7b 39 3a 48 ec 57 39 62 db 2d bb f8 45 2d bd
       0.0007075576 0.0002059202 -0.0026528467 -0.042303056
000280 c2 64 a1 3c 21 7b 9c bd e2 46 81 38 3e ef ce 3c
       0.019701365 -0.076406725 6.164402e-05 0.025260564
000290 09 80 4c ba 2f 98 e3 ba 43 47 42 bb d9 3d 40 bd
       -0.0007801061 -0.001736408 -0.0029644526 -0.046933983
0002a0 d5 a5 39 3d 11 4f 88 bd c1 5f 02 3d b2 6f 79 b9
       0.045324165 -0.06655706 0.0318296 -0.000237881
0002b0 2f 56 89 bc d2 83 c0 b9 22 88 4e bd 47 a0 31 3a
       -0.016764728 -0.00036719308 -0.050422795 0.00067758973
0002c0 41 b4 d3 bb 67 b6 d8 3c ff 07 06 3b 43 cc 50 bc
       -0.006460697 0.026454164 0.0020451543 -0.012744012
0002d0 56 16 88 bd b8 44 5c bc c4 a2 a3 38 f4 be 50 3d
       -0.06644885 -0.013444118 7.802763e-05 0.050963357
0002e0 89 e2 c2 3c 15 7a 23 39 6f eb 1d bd 66 fd cc bd
       0.023789661 0.0001559037 -0.038554605 -0.100092694
0002f0 36 2d 8f ba 24 28 1b ba ff 79 4d 3c be da 0f 3d
       -0.0010923508 -0.0005918762 0.012541293 0.03512072
000300 14 cd 45 3b a1 77 4c 3a c6 f0 0f b8 7e 9b 25 ba
       0.003018205 0.00077998085 -3.4318095e-05 -0.00063174206
000310 f6 21 28 ba 5b 12 36 3a 26 d9 a5 3a 59 c9 3a 3b
       -0.0006413752 0.0006945484 0.0012653216 0.002850136
000320 88 ea f8 b9 25 8d a2 3a cb 2e e2 b9 94 19 17 39
       -0.00047476985 0.0012401683 -0.00043140943 0.00014410011
000330 b0 5f 6a b9 ca 34 3a 3b ed 33 28 bb 24 31 e5 ba
       -0.00022351625 0.0028412812 -0.0025665716 -0.0017485959
000340 a1 78 39 b9 bc a6 72 ba b6 49 10 b8 b6 34 28 3b
       -0.00017687913 -0.0009256413 -3.4400924e-05 0.0025666184
000350 0e 02 88 3a 5d 2b 15 b9 3b a1 4e 3a 1c 63 e0 39
       0.0010376589 -0.00014225901 0.00078823016 0.00042798452
000360 1b 17 22 bb 2f 62 60 3a 70 12 5a 39 9f 6a da 39
       -0.002473301 0.00085595524 0.00020796969 0.0004165964
000370 88 75 43 3b b4 16 12 ba c9 4f 2d ba 4f e7 4e 3a
       0.0029824693 -0.0005572841 -0.0006611315 0.0007892744
000380 e5 6b 8c b9 08 4c bf 39 b8 69 25 3a 8b 02 a2 ba
       -0.0002678327 0.00036487007 0.0006310004 -0.0012360377
000390 4d 4c 81 ba c2 1a be b8 8e de 52 ba c8 03 92 ba
       -0.0009864658 -9.06489e-05 -0.00080440275 -0.0011140043
0003a0 bd 19 15 3a 04 8c 8d b9 5a 30 46 bb 68 9a 1e 3a
       0.0005687734 -0.00026997935 -0.0030241222 0.000605023
0003b0 a6 0c c9 39 d1 e4 b8 38 c0 42 2a ba 15 e6 8f ba
       0.0003834713 8.816424e-05 -0.0006494932 -0.0010978604
0003c0 13 36 34 3b 59 6d 36 3b 81 1a 3b b9 ec 3a 85 39
       0.002749805 0.0027836172 -0.00017843583 0.00025411637
0003d0 64 ef 73 b9 68 b3 f3 b8 60 87 4f 39 c4 2a 31 bb
       -0.00023263466 -0.0001162056 0.0001979149 -0.0027033547
0003e0 c7 26 e9 b9 22 0c 31 3a d0 17 4e b8 07 9f b9 b9
       -0.00044470115 0.0006753822 -4.9136404e-05 -0.00035404434
0003f0 ac ac 50 3a d8 fa e2 37 f7 03 a8 ba 04 93 c8 ba
       0.00079603004 2.7058108e-05 -0.0012818564 -0.0015302603

bias f4 [128]
000000 07 83 c9 ba 3a 98 c5 3a 5d 56 0c bd 3a 1a 99 38
       -0.0015374132 0.0015075274 -0.03426205 7.3004936e-05
000010 44 2f 18 39 04 e9 43 3b c3 b2 eb bc d3 fc 37 3d
       0.00014513457 0.0029893527 -0.028771764 0.044918846
000020 f0 0a 82 3a e9 6b 45 3d d0 d0 9b 3d e0 fe ad ba
       0.0009921473 0.048198614 0.07608187 -0.0013274811
000030 d6 8b 49 b8 ec 17 44 3b 49 26 9a 3d ca 6a bd bc
       -4.8052367e-05 0.0029921485 0.075268336 -0.02312221
000040 10 8c f9 b9 7b 6e 21 bc 5e b0 01 3b 47 16 2b ba
       -0.00047597336 -0.009853001 0.001978896 -0.0006526452
000050 d2 44 d0 b8 c2 a8 d0 b8 fc 4c dc 3d da 74 de b6
       -9.931032e-05 -9.9496465e-05 0.10756871 -6.629719e-06
000060 9e ef b2 ba 83 ae 15 bd 24 f2 69 3d f0 ff 04 b8
       -0.0013651734 -0.03654338 0.05711569 -3.1709613e-05
000070 dd 00 21 bb 4c 7d 07 bb ca a8 dc bc a9 10 57 3d
       -0.0024567165 -0.0020674048 -0.026935954 0.052506123
000080 13 3c 29 bd 04 dc 25 38 7d 38 93 b8 24 cc 8d ba
       -0.041317057 3.954397e-05 -7.020028e-05 -0.0010818285
000090 7a a8 86 ba 42 87 43 3c d2 bf 13 b9 f1 ed ce bc
       -0.0010273599 0.011934103 -0.00014090471 -0.025259944
0000a0 99 70 2e bd a9 59 a8 bb 5b db 8c bc ec 16 1d 3b
       -0.04258785 -0.0051376414 -0.01719444 0.0023969961
0000b0 d1 ab 02 3b db af 8c 3d 58 71 7d 3a 1b 08 e2 39
       0.0019938836 0.06869479 0.00096680736 0.00043112118
0000c0 c5 2a 2d bb 89 08 14 bd e4 4f 19 ba 0a 08 a8 3d
       -0.0026423198 -0.036140952 -0.00058483914 0.08204658
0000d0 c5 23 9f 3a b2 7a 6c 3d 0c fe bf b9 04 96 02 3d
       0.0012141397 0.0577342 -0.0003661964 0.031881347
0000e0 a6 a1 7b b7 15 79 9e ba 0c f3 e7 3c a3 c3 0a 3e
       -1.4998403e-05 -0.0012090529 0.028314136 0.13551192
0000f0 8a 12 b8 bb 18 e7 9a b8 cd 4b 99 b9 61 4f 22 b9
       -0.0056174444 -7.386337e-05 -0.0002923891 -0.00015479095
000100 d1 17 a5 3d 70 0c 9d 3a 98 cb 73 bd 6e 1a bb 3c
       0.08061183 0.0011981856 -0.059520334 0.022839751
000110 37 0d ff 3d 25 1b 09 bc 19 ec e9 3d ab 04 13 3b
       0.124536924 -0.008368288 0.11421985 0.0022433202
000120 ea 4e a3 3d 7e ac 8d bc 9c 25 34 3a ab 73 13 bd
       0.07974036 -0.017294165 0.00068720593 -0.03599898
000130 17 15 09 3d 4f f8 01 3d f4 80 b5 3c 6a 34 8b 39
       0.03346738 0.031730946 0.022156216 0.00026551198
000140 24 ff a6 ba 85 93 3d 3c 30 36 de bc 60 92 78 36
       -0.0012740833 0.011570816 -0.027125448 3.7040081e-06
000150 79 2d 86 b9 33 9e d4 39 c2 b7 e5 3a 22 ad 0d bd
       -0.0002559235 0.0004055366 0.0017526078 -0.03458894
000160 58 96 b8 39 de 44 08 3e b1 3f f6 b7 75 eb 09 3a
       0.0003520723 0.13307521 -2.9355144e-05 0.0005261221
000170 ff 00 a3 3d 19 fa b4 b9 a6 86 69 bd 92 a3 dd 38
       0.07959174 -0.00034518613 -0.057013176 0.000105685685
000180 16 c3 bd 3d 9b 52 4c ba aa 0a 30 3d 8c 33 20 bb
       0.09265725 -0.00077942916 0.04297892 -0.0024444787
000190 a0 ac 20 bb d0 20 34 3b a6 93 f1 3c 8e 4a 6b ba
       -0.0024516955 0.0027485378 0.02948935 -0.0008975648
0001a0 0f 22 d9 3d 00 b7 2d 3b 41 bd b2 3c 03 2e 84 ba
       0.10602199 0.0026506782 0.021818759 -0.0010084513
0001b0 97 6b 12 3e 8b c6 bd 3d 3e 8d 39 b9 b1 62 3e 3c
       0.14298855 0.09266385 -0.00017695592 0.01162021
0001c0 e0 1c 81 3b 68 33 28 bd 67 d1 44 3b 9a 19 cc bc
       0.0039402097 -0.04106465 0.003003204 -0.024914552
0001d0 9e f1 8d 3a 2e ee e8 3d 2d ab b9 b9 aa c4 5d 3d
       0.0010829454 0.11373554 -0.00035413486 0.05414263
0001e0 b6 0d 90 3d 2e 09 a1 3c f5 91 25 3d 6d fd 4e bd
       0.07033865 0.019657698 0.0404224 -0.050534654
0001f0 d4 82 44 38 70 c2 14 38 e8 44 08 3c d3 e7 34 3d
       4.6851885e-05 3.5467034e-05 0.00831721 0.044166397
